best_model1.pth (torch, 213874 bytes, 11 tensors)

weight_ih_l0 f4 [384, 2]
00000000: c605 783d 62a8 743d 860d 37bd 0e42 103d
00000010: 8a40 143d 646c 8ebc fb44 a53d f0a7 a43b
00000020: 3de7 28bd 1030 47bc c4a3 6fbd 3e7f 3d3d
00000030: bd41 803d 2854 a1bd c0da 2d3b 2e64 043d
00000040: 80eb 4cbb c08e 2dbb 8606 393d b88d 173c
00000050: 62b2 30bd 2f3b aebd 5ee0 1e3d c9cb 9a3d
00000060: ce1d 82bd 6802 ce3c 282c aabd 1b6f 913d
00000070: 7cc7 80bc 075c b33d 31fd 903d d4ce bebc
00000080: b818 733c 64d2 823c b74e af3d 71df a3bd
00000090: 00d5 12ba 687c c23c c28e 343d a87b 6d3c
000000a0: cef3 44bd 586f 95bc f062 2cbc 80b6 193a
000000b0: 9c4f aebc fe76 403d 8657 423d f4d0 91bd
000000c0: a21b 83bd ee64 8cbd 3c3a 03bd 2fa0 8e3d
000000d0: bb03 4fbd f067 bf3c 8cb5 14bd 00be a6ba
000000e0: f283 793d ce36 1bbd 547d 7abd abc4 8f3d
000000f0: e879 f4bc 9800 44bc 1875 223c 5b71 963d
00000100: 65b9 72bd 060b 7b3d 58d5 4d3c 40a9 f5ba
00000110: 84f7 89bd de67 3bbd ca6e 5b3d f409 05bd
00000120: e60c 6a3d c65b 413d 3f29 8c3d 4006 25bb
00000130: a636 56bd 46a4 3b3d 0ada 613d 0eb6 b2bd
00000140: 9ad6 433d aa09 783d 8078 50bb 48e8 ae3c
00000150: 86b3 3b3d 6a3c 1f3d 6405 7abd fc87 a5bd
00000160: 7866 913c a058 d7bb d211 583d c24e 85bd
00000170: d4ed 833c ddfc 983d 6023 1e3c d843 69bc
00000180: 33ed 1abd 5616 4bbd ed0b 23bd c3f2 abbd
00000190: 8086 4dbd 00d5 133b 55db 4fbd b76a 813d
000001a0: 7a7a 54bd c85c 8dbc dd67 84bd 76e6 143d
000001b0: 71ab 8a3d 8474 d23c 6e54 163d 7610 693d
000001c0: 63db 913d fedf 25bd b0d2 78bc 7873 13bc
000001d0: 4b07 b23d 481f 393c d04e 0f3d 4fec a83d
000001e0: 60a9 c63c c1f8 873d c087 473c 37f6 85bd
000001f0: c507 96bd 2cd3 993c c1e3 a63d fa41 5cbd
00000200: f03d a8bb 6ee3 2e3d 982e fabc 48cd 093d
00000210: 6b70 4ebd b82f 9d3c e221 40bd 64e7 a8bd
00000220: 32a2 113d dce4 8bbd 802f 90bc 40bd 6abb
00000230: fc09 c2bc ab6d b43d 3413 0bbd a435 11bd
00000240: 06bd 36bd 6f66 15bd 286a d23c ee72 443d
00000250: 281b 4c3c 13a0 89bd b206 dbbc d86a 58bc
00000260: 30d2 983b c2b0 75bd 68d7 103d e813 3c3c
00000270: f48c adbc 9bb9 a93d 54d4 97bd 00b8 b8b9
00000280: 5c36 c23c 39f8 9c3d ee4c 5d3d d65c 92bd
00000290: 07dc a43d 0a30 243d e215 acbd a9a3 44bd
000002a0: 1c31 78bd 0fe7 a43d b2bd 17bd fba3 1abd
000002b0: 5ea5 393d 12e0 373d 3ce7 e63c 544a 6dbd
000002c0: 88e8 0a3d 98be c8bc 9c69 afbd c4df 5fbd
000002d0: 9b2e 803d d4af a7bc 5213 213d 60df 333c
000002e0: 12cf 433d 4826 4a3c b729 b13d 5c2d 90bc
000002f0: 188b d33c bbac 8b3d 2285 72bd 52ae 8dbd
00000300: 3e5d 87bd 090a 8c3d 2033 39bc c073 283c
00000310: 4220 4c3d 90c6 c73c 000d b8bc 4af5 4a3d
00000320: 4856 0f3d 80d4 3c3b 8ce9 fc3c 4006 87ba
00000330: 7aea 85bd 8712 aa3d ac1d 4bbd 903f e8bb
00000340: 9e08 ebbc f326 02bd 3594 893d d8e7 abbd
00000350: cd9a 823d a067 0d3b b477 c43c da82 6dbd
00000360: 6523 893d 4ad4 7ebd 5088 5d3c 31d3 46bd
00000370: 12f0 31bd f75c 93bd 2e2c eebc 60cd 94bd
00000380: dc50 803c 7030 0c3c 4d3c a13d 7323 3abd
00000390: 82c1 aabd 6e2a 5b3d 7ddb 6cbd 5a44 a4bd
000003a0: 7a67 55bd e022 fe3b 7a14 06bd 90f1 62bc
000003b0: c03d 1abb 825d 73bd c635 413d 0998 53bd
000003c0: 60cc 4f3b 92d0 2a3d 0054 353c 3bea aa3d
000003d0: 3389 44bd 0224 753d a789 4cbd 307c 19bc
000003e0: 050e 8f3d 4077 a73a 605f b4bc 963f 423d
000003f0: ce11 223d 9554 ae3d 87ee 92bd 0cbe 63bd
0.06055238 0.059730895 -0.04469063 0.035219245 0.03619436 -0.017385669 0.080697976 0.0050249025
-0.04123615 -0.012157455 -0.05850579 0.046263926 0.062625386 -0.0787738 0.002652809 0.0323221
-0.0031268299 -0.002648279 0.045172237 0.009250097 -0.04313887 -0.08507382 0.038788192 0.075584
-0.06353341 0.025147632 -0.083092034 0.0710127 -0.015720122 0.08757787 0.070795424 -0.023291983
0.014837436 0.015969463 0.085599355 -0.080016024 -0.00056011975 0.023740962 0.044081457 0.014494814
-0.048084073 -0.01824157 -0.010521635 0.00058636814 -0.021278195 0.04698848 0.04744675 -0.07119933
-0.06401755 -0.06855188 -0.03203796 0.06964146 -0.050540667 0.023364991 -0.03630595 -0.0012721419
0.06091685 -0.037894063 -0.06115468 0.07019933 -0.029843286 -0.011963032 0.009915613 0.073458396
-0.059258837 0.06128981 0.012563072 -0.0018742457 -0.06736663 -0.045753352 0.053572454 -0.032480195
0.057141207 0.047206663 0.068438046 -0.0025180727 -0.05229821 0.04581096 0.05513958 -0.087261304
0.047812082 0.06055609 -0.0031810105 0.021350995 0.045825504 0.038875975 -0.061040297 -0.080825776
0.017749056 -0.006571844 0.05275137 -0.065091625 0.016104616 0.07470105 0.009651989 -0.014237367
-0.037823867 -0.049581848 -0.039806295 -0.083959125 -0.050177097 0.0022557378 -0.05074628 0.06319182
-0.051874615 -0.017256156 -0.06465123 0.036352597 0.06770981 0.025690325 0.036701612 0.056900464
0.07121923 -0.04049682 -0.015186951 -0.008999698 0.08692797 0.011298962 0.03498727 0.08248197
0.024250686 0.06639243 0.012178361 -0.065411024 -0.07325701 0.018777452 0.08148909 -0.053773858
-0.0051343367 0.042697363 -0.030539796 0.033643037 -0.05040018 0.019187793 -0.046907313 -0.08247259
0.035555072 -0.06830761 -0.017600775 -0.0035818368 -0.023686402 0.0880998 -0.03395386 -0.035451546
-0.04461386 -0.03647464 0.025685385 0.047961168 0.012457646 -0.06719985 -0.026736591 -0.013209067
0.004663728 -0.059983023 0.035361677 0.011479355 -0.021185376 0.082873546 -0.07413545 -0.00035232306
0.023707561 0.07664532 0.054028444 -0.07146613 0.080497794 0.040084876 -0.08402611 -0.04800764
-0.06059371 0.080518834 -0.037046142 -0.03775404 0.045323722 0.044891424 0.028186433 -0.057932213
0.033913165 -0.024504945 -0.08565065 -0.05465676 0.06258889 -0.020469584 0.039325066 0.01097855
0.0478049 0.0123382285 0.086505346 -0.017599754 0.025823161 0.06820055 -0.059208997 -0.069180146
-0.066095814 0.068378516 -0.011303693 0.010281503 0.04983545 0.024386674 -0.022467136 0.049550332
0.034994394 0.0028813183 0.030873083 -0.0010301545 -0.065388635 0.08304315 -0.049588844 -0.0070876554
-0.028690632 -0.031775426 0.067177214 -0.0839383 0.06377182 0.0021576658 0.02398286 -0.057986118
0.06696204 -0.062214173 0.013521269 -0.04854125 -0.04344184 -0.07195466 -0.0290738 -0.07265735
0.015663557 0.00855647 0.078728296 -0.045443963 -0.0833769 0.05350726 -0.057826508 -0.080208495
-0.052100636 0.0077556223 -0.03273437 -0.013851538 -0.002353534 -0.059415348 0.047170423 -0.051658664
0.003170751 0.041702814 0.01106739 0.08345457 -0.047982406 0.059848793 -0.049935963 -0.0093679875
0.06985096 0.0012776628 -0.022018135 0.04742392 0.03956776 0.085122265 -0.07174402 -0.055601165

weight_hh_l0 f4 [384, 128]
00000000: 1056 053c 6339 0fbd a2c8 69bd 6c7d 1abd
00000010: 40a6 c03b 3262 083d b540 a03d 919d 913d
00000020: 223a 5d3d c337 8c3d e23d 7f3d 7404 8e3c
00000030: a653 d9bc 68f9 4c3c de69 4abd 68e7 253c
00000040: 6a8a 563d a856 e0bc a047 813b 9ceb b83c
00000050: 4af2 77bd 8847 b1bd af64 89bd cc29 00bd
00000060: 20c7 bcbc a0a6 31bc b662 f3bc 5ef8 6f3d
00000070: 2200 61bd 62d9 333d c031 3fbc c48a cc3c
00000080: c873 163c 4876 8cbc 8bef 843d e3fd 9c3d
00000090: 0eb8 633d 1d7d 9cbd e24c 783d e635 2a3d
000000a0: b735 6abd 9c53 8cbc 1091 2fbc ea26 713d
000000b0: d4fc aebd fd28 9ebd d553 66bd 3b27 a13d
000000c0: 812a 863d 311e ae3d 4c8e abbd 80c2 883a
000000d0: f2bd a3bd b714 20bd da9c 263d b066 a03b
000000e0: 3665 92bd 20bc 453b c817 8fbd 5d44 823d
000000f0: fc4f 5ebd 1876 b7bc 419d 72bd 08da a5bd
00000100: 783f 6abc 003f 553b 2a54 fdbc 08a4 153c
00000110: 4149 63bd 2033 b2bd 4df2 863d 8a2a 1bbd
00000120: b014 7cbc 3209 3b3d ba4e 79bd 8866 be3c
00000130: d552 b23d dcec b13c b77b 6dbd 8433 b03c
00000140: 4960 2fbd 384a 49bc 1f5c 46bd dc75 c73c
00000150: d321 3abd 7080 5bbc a0ce c63b 4366 51bd
00000160: e579 66bd e8ca 2b3c ac15 01bd 3655 8ebd
00000170: 73a6 953d 5f6e a03d 2aaa 6bbd 0574 88bd
00000180: 04ac 80bd fd06 8b3d b8b1 023d e11b 9abd
00000190: 689a ee3c 041a 9f3c e44e 96bc 5a7d 483d
000001a0: 6c8f 5fbd 6194 853d f05a 353c 5dfc 8e3d
000001b0: 4378 a33d f68f 4cbd fe57 0c3d 7253 193d
000001c0: b68f 94bd eb97 8c3d 221c 0f3d c080 cd3a
000001d0: ec91 8ebd 1351 a93d 204d b8bc 9061 86bc
000001e0: 6be3 a9bd f835 adbd 8ac7 403d b818 213c
000001f0: 1049 78bc 0f6a a93d d908 53bd 5bba ac3d
00000200: 3f42 983d e9f8 8d3d 28e2 72bc 925e a2bd
00000210: 1e02 433d 8491 9ebd b00a acbb e8c3 a53c
00000220: d40c e1bc 4831 5fbc 499f a43d e0db e5bc
00000230: 20a1 0b3c 2080 78bb 4001 afba 23a6 a8bd
00000240: fa15 15bd b990 a03d d374 a5bd a80f ed3c
00000250: 5129 53bd 1f17 953d 104d c13c c0e1 50bb
00000260: 0c41 adbd 9461 77bd 3b66 ac3d 7d41 b03d
00000270: ad16 823d f3e4 a5bd f85d adbc 5cb1 d53c
00000280: 33df abbd 5e32 163d 0050 2eba 0af5 ebbc
00000290: b6bd 82bd 40d5 c93a e80a 0e3c dab2 0c3d
000002a0: a6cc 693d db27 9cbd 1852 3dbd b7ea 993d
000002b0: 78f9 02bc 0004 e139 37b1 a03d 5ace 763d
000002c0: 0763 39bd bb30 843d 7849 533c e0b5 36bd
000002d0: 062c 393d 4781 20bd 036f 81bd 8e4d 77bd
000002e0: 5b0f 6cbd 9037 1ebd 044e fd3c b67b 7b3d
000002f0: 87d6 963d f702 9a3d dfc4 9bbd 50ba aabc
00000300: 1004 bcbb d9e6 953d 78af f83c 11df 893d
00000310: fe51 a8bd f523 23bd a804 a2bc 9770 12bd
00000320: 406c 6b3b bdb4 b33d 6011 523c 5e12 753d
00000330: e225 d9bc 399f 45bd 4879 abbd b465 a7bd
00000340: c8b9 66bc c471 7bbd 9bd4 803d 4e82 713d
00000350: 32ce 03bd 2120 b4bd 360b a6bd d8a9 6f3c
00000360: 9bf8 a23d 0106 a63d 805b 983c a02c ccbc
00000370: ff23 4abd 500b 9c3c 130e 1ebd 5b1d 843d
00000380: 5788 9e3d 844e d13c eb49 a13d 7696 43bd
00000390: d883 ff3c 6283 1c3d 6587 a93d 08f0 2bbc
000003a0: a09d 2a3b 70ed afbd 355a ad3d 60c1 283b
000003b0: 5981 a33d 4520 82bd d696 0b3d 0ee3 293d
000003c0: 40d0 ef3b 3779 26bd 3f38 18bd f07e 3e3c
000003d0: 0439 083d 03f4 903d 0c47 9fbc 22bd a1bd
000003e0: d808 19bc 3010 28bc c12b 85bd 1896 75bc
000003f0: 7b0d 863d f9cc 46bd 60fc 943b 185d a93c
0.008138195 -0.034966838 -0.057076104 -0.037717268 0.0058791935 0.03329677 0.07824842 0.071101315
0.054010518 0.06846573 0.062314875 0.017336108 -0.026529144 0.012510635 -0.04941737 0.010125972
0.052378096 -0.02738507 0.003945306 0.022573285 -0.0605338 -0.08656222 -0.06708657 -0.03128986
-0.023044169 -0.010842949 -0.029710155 0.05858647 -0.054931767 0.043908484 -0.011669576 0.024968512
0.009182878 -0.017146245 0.06491002 0.076656125 0.05559545 -0.07641051 0.060620196 0.041555308
-0.057180133 -0.017129712 -0.010715738 0.058875002 -0.08544317 -0.07722662 -0.056232292 0.07868811
0.06551076 0.08501852 -0.0837675 0.0010433942 -0.079952136 -0.039082255 0.04067693 0.004895054
-0.07148211 0.0030171946 -0.06986958 0.063606955 -0.054275498 -0.022395179 -0.059232 -0.08098227
-0.014297359 0.0032538772 -0.030923922 0.009133346 -0.055489782 -0.087011576 0.06589184 -0.037882365
-0.015385792 0.045663066 -0.060866095 0.02324225 0.08707205 0.021719389 -0.05797931 0.02150894
-0.042816434 -0.012285762 -0.048427697 0.024348192 -0.045442414 -0.013397321 0.006067112 -0.051122915
-0.05626859 0.010485388 -0.03151481 -0.069498464 0.07307138 0.078335516 -0.057535328 -0.06662754
-0.062828094 0.06788442 0.031907767 -0.07524849 0.029126361 0.019421585 -0.018348165 0.04894767
-0.054580137 0.06522442 0.0110690445 0.06981728 0.079819225 -0.04994198 0.034263603 0.037433095
-0.07253973 0.068649136 0.03493894 0.0015678629 -0.06961426 0.08267417 -0.022497714 -0.016403943
-0.0829533 -0.08457559 0.047065295 0.009832554 -0.015154138 0.08272182 -0.05152211 0.08433982
0.074345104 0.069322415 -0.014824428 -0.07928194 0.04760944 -0.07742599 -0.0052502975 0.020235017
-0.027471937 -0.013622589 0.08038194 -0.028058946 0.008522302 -0.0037918165 -0.0013351813 -0.08234813
-0.03639791 0.07840104 -0.08078923 0.02893813 -0.051553074 0.072798006 0.023596317 -0.0031872839
-0.08459672 -0.060395792 0.084179364 0.08606241 0.06351981 -0.08100309 -0.021162972 0.026085548
-0.08392181 0.036669128 -0.0006649494 -0.028803367 -0.06383841 0.0015398636 0.008669592 0.034350254
0.057079934 -0.07624789 -0.04622087 0.075154714 -0.007994048 0.00042918324 0.07846301 0.060255386
-0.045260455 0.06454607 0.012895934 -0.044607043 0.045208 -0.03918579 -0.06320002 -0.060376696
-0.05763183 -0.038627207 0.03092099 0.061397277 0.073651366 0.07520097 -0.076059096 -0.020840794
-0.005737789 0.07319421 0.030357108 0.06732 -0.08218764 -0.039829213 -0.01977761 -0.035751905
0.0035922676 0.087747075 0.012821525 0.05983197 -0.026507322 -0.04824755 -0.08372742 -0.08173695
-0.01408238 -0.061387792 0.06290551 0.05896216 -0.032179065 -0.087951906 -0.08107607 0.014627896
0.07957574 0.08106614 0.018598318 -0.024923623 -0.049350735 0.019048363 -0.03858764 0.064509116
0.077408485 0.025550134 0.07875427 -0.047750913 0.031190798 0.038211234 0.082777776 -0.01049424
0.0026033893 -0.085902095 0.08464471 0.0025750026 0.079836555 -0.06353811 0.034079395 0.0414763
0.0073185265 -0.040642943 -0.037163015 0.011626944 0.0332575 0.070777915 -0.019443057 -0.07897402
-0.009340487 -0.010257766 -0.06502486 -0.014989398 0.0654554 -0.04853532 0.004546687 0.020674273

bias_ih_l0 f4 [384]
00000000: 30c8 853c 0058 96bb a4cd c2bc 5170 9a3d
00000010: 14af 04bd a4d7 38bd 64a9 893c ebf0 b43d
00000020: 4f9e 873d 0607 81bd c011 d5ba b43c e7bc
00000030: 8e95 2abd 7020 91bd 850d 9e3d 8609 223d
00000040: 664b 163d 3573 0abd 6ef1 693d 7c59 98bd
00000050: c60d 413d 30c0 9cbd 5fed ac3d 9482 98bd
00000060: 104b dbbc 757b 8c3d 7154 27bd 38bc 6fbc
00000070: 466b 69bd 070b 9b3d 6a31 393d a27e 403d
00000080: be58 523d 62ac 9dbd 201d ce3c a927 913d
00000090: d88f 493c b45e 8abd 2cea 9bbc 8035 8fbc
000000a0: d9b6 0cbd 21f2 953d 1bac aa3d 3854 a0bc
000000b0: fe36 773d 6005 1ebb d78e 4dbd b03b 333c
000000c0: 813c 853d 9354 913d 6c7e d73c ba31 87bd
000000d0: 701e 82bd bc54 87bd 9e6c 543d 68e6 22bd
000000e0: 8600 84bd 0a1f 5ebd 324a 733d 380b 773c
000000f0: da85 6f3d b8d7 77bc 3811 93bd bf96 ae3d
00000100: 402b 37bc 9e4f 1f3d 0e37 723d a27c 053d
00000110: ef35 ac3d e2fa 5b3d 80b5 d73c e0f0 363c
00000120: 2be7 b4bd 448d b53c 46ca 423d 5039 06bc
00000130: 8f54 963d fb94 893d 9c4e 97bd 006a adbb
00000140: 9e4d 463d dee2 743d 341c b0bc 5635 1f3d
00000150: c29a 073d 3cc3 96bd 0bfa 923d 467d 4d3d
00000160: c04c 9a3c f003 5d3c 80f8 79bd e693 673d
00000170: 30ef 9abb a4c4 37bd 2a4b 61bd dfc8 a9bd
00000180: 84f4 d3bc 2369 2dbd b4b0 89bd 35b8 66bd
00000190: 0bc2 a73d c892 dcbc 60da 63bd 0ad8 0c3d
000001a0: 25af abbd d85c 7e3c b892 89bc 1459 62bd
000001b0: abe3 30bd 52dd 583d 0671 383d 8dac 64bd
000001c0: 5506 8a3d e003 b93c f8cb 04bd 2ec4 623d
000001d0: 78b4 15bc 53be ab3d 687d 7abc e42e 24bd
000001e0: 18a0 da3c 4ef3 643d 6078 053c 02aa 21bd
000001f0: c0dd 9f3c 8eea 49bd d077 7f3c 40c8 c13c
00000200: ae22 d5bc e8e9 22bc 9e48 8dbd 922a 7abd
00000210: 50db 8dbb 97f1 b0bd 1ed6 7e3d 10b5 fe3b
00000220: 3781 893d 30f1 14bd 6db5 57bd 063e 703d
00000230: 29a1 01bd e824 a1bd 1d6f a83d 21a2 8b3d
00000240: 2645 f3bc 86bb 3cbd 0ed1 25bd 60c4 7dbc
00000250: d628 a6bd 3432 5dbd aee8 473d 80e9 483b
00000260: 8304 6fbd b741 8bbd e261 9fbd 8176 83bd
00000270: 79e4 89bd 4a7f a1bd 39e2 84bd 7b9a 9c3d
00000280: f811 5d3c d4e4 cc3c 0012 7d39 c350 3cbd
00000290: a0d4 09bc d4e7 f33c 6e05 543d 8a08 303d
000002a0: decd 1d3d c040 293c b04e 84bb 7f60 6abd
000002b0: 7e0c 0d3d abac 80bd 8a2d 343d 7a0f 09bd
000002c0: 1c3b 923c 1d70 b43d 66d6 7ebd d20b 9abd
000002d0: 1967 08bd ac26 b9bc 84f6 94bd e3df 823d
000002e0: e0be e6bb 429f 0cbd 0f66 1fbd d164 953d
000002f0: 8116 aabd 4e27 0ebd ac6a d63c d150 9b3d
00000300: bd77 983d d84a 153c fa7a 92bd 6e27 eabc
00000310: 18f6 63bc 9dda a63d 09b0 923d da3a 03bd
00000320: 85a0 92bd 9ea6 a4bd 6012 123c e7b2 b0bd
00000330: 38a0 83bd 42a6 6e3d 92c5 4ebd 8028 eb3c
00000340: e5bd 8d3d b367 03bd 79cf abbd 66f9 88bd
00000350: 6e92 633d c8ef ef3c 1d8a 51bd d983 873d
00000360: a5c2 ac3d ab4d 8e3d 5283 14bd 6f2a 8b3d
00000370: 2b35 88bd e80b b63c 7f9a 9fbd bc12 9cbc
00000380: 6e15 8fbd 21ab 59bd 40f7 ae3b 80b1 a0bb
00000390: 8893 88bd 3200 693d 9acc 94bd d87a 10bd
000003a0: 3d71 a83d 40d4 aabc 2017 d53c fea0 1d3d
000003b0: c84a d2bc 8a4f 1c3d c03e 883a e08a 6b3b
000003c0: 5398 a0bd ea46 253d 3710 933d 35f0 24bd
000003d0: e207 243d 9ed2 453d a9ad 973d 9808 fdbc
000003e0: e0a5 a13c a253 733d 5bf6 a0bd 306c 37bc
000003f0: 9ad9 353d 434b 86bd d0d4 62bd a7d2 a1bd
0.016330808 -0.004588127 -0.023779698 0.07540954 -0.03239353 -0.045127526 0.016804405 0.08835014
0.06621992 -0.06300168 -0.00162559 -0.028227188 -0.041646533 -0.07086265 0.077174224 0.039559864
0.036693 -0.033801276 0.05711501 -0.07438943 0.047132276 -0.07653844 0.084437124 -0.07446781
-0.026769191 0.06859485 -0.040852014 -0.014632277 -0.05698707 0.07570463 0.04521314 0.046995766
0.051354162 -0.07698895 0.025160372 0.07087643 0.012302361 -0.067563444 -0.01903256 -0.017481565
-0.034354065 0.07321573 0.08333608 -0.019571409 0.06035518 -0.002411209 -0.05018505 0.010939524
0.06505681 0.070962094 0.0263054 -0.066012815 -0.06353462 -0.06607959 0.051861398 -0.039770514
-0.06445412 -0.05422882 0.05939693 0.015078358 0.05847726 -0.015127115 -0.071810186 0.08524846
-0.011179745 0.03889429 0.059134535 0.032589562 0.084087245 0.053706057 0.026331663 0.0111658275
-0.08833154 0.022162087 0.047556184 -0.008192375 0.07340347 0.06717869 -0.073880404 -0.005292177
0.048413865 0.05978667 -0.021497823 0.038869224 0.033106573 -0.07361457 0.07176598 0.0501683
0.018835425 0.013489708 -0.061028004 0.05653753 -0.0047282204 -0.044865265 -0.055003323 -0.08290266
-0.02587343 -0.042336594 -0.067231566 -0.056328017 0.08191308 -0.02692546 -0.05562818 0.03438572
-0.083830155 0.015525065 -0.016793594 -0.055260733 -0.04318587 0.052945442 0.045029663 -0.05582862
0.06739489 0.022584856 -0.032421082 0.055362873 -0.009137265 0.08385911 -0.015288688 -0.04008378
0.026687667 0.055896096 0.008146375 -0.039468773 0.019514918 -0.049295954 0.01559253 0.023655057
-0.026017513 -0.009943463 -0.06898616 -0.061075754 -0.0043291226 -0.086398296 0.062215917 0.007773049
0.06714099 -0.036362827 -0.052663255 0.0586529 -0.031647835 -0.078683674 0.08224318 0.06818033
-0.029696058 -0.046077274 -0.040482573 -0.015488714 -0.081132576 -0.054002956 0.048805885 0.0030656755
-0.058353912 -0.067996435 -0.077823415 -0.06419087 -0.06733031 -0.078856066 -0.06488461 0.07646652
0.013493054 0.025011458 0.00024134666 -0.045975458 -0.00841251 0.02977363 0.05176299 0.042976893
0.03852641 0.010330379 -0.0040377006 -0.057220932 0.03443574 -0.06282934 0.043988742 -0.033462025
0.017850451 0.088104464 -0.062216185 -0.07521786 -0.033301447 -0.022601448 -0.072735816 0.06390359
-0.007041797 -0.034331568 -0.03891569 0.0729462 -0.083050735 -0.034705453 0.026173912 0.07583774
0.07444713 0.009112082 -0.07152362 -0.028583255 -0.013913654 0.08147166 0.07162482 -0.032038547
-0.07159523 -0.08039592 0.008915514 -0.08627873 -0.06427044 0.058264025 -0.050481386 0.028705835
0.06920985 -0.032081317 -0.08389182 -0.06688194 0.055559568 0.029289141 -0.051157106 0.06616945
0.08435563 0.06948408 -0.03625805 0.06795203 -0.06650766 0.022222474 -0.0779314 -0.019051902
-0.06986509 -0.053141717 0.005339533 -0.004903972 -0.06668764 0.056884952 -0.07265587 -0.035273403
0.082247235 -0.020853162 0.026012003 0.038483612 -0.025670424 0.03816179 0.0010394678 0.003594093
-0.078415535 0.040350832 0.07180827 -0.04026814 0.04004658 0.048296563 0.0740617 -0.030887887
0.019732416 0.05940593 -0.078594886 -0.0111952275 0.044396974 -0.06557324 -0.055378735 -0.07901507

bias_hh_l0 f4 [384]
00000000: 74b1 30bd 4f31 9f3d 179b a03d 014f 83bd
00000010: b699 1bbd 5259 6c3d 75ce ac3d a388 42bd
00000020: 30af e9bb 3b39 1abd d8bb 983c 0e98 10bd
00000030: 3341 823d 3896 60bc 96d9 3d3d f1de 0ebd
00000040: 07fd 04bd cac1 e4bc df34 43bd a8aa 5dbc
00000050: 35df 9ebd 7221 673d 330b 8d3d 5255 203d
00000060: ebe4 a9bd c11c 51bd f020 29bc a0e2 b23b
00000070: b2ec 6f3d cba8 b3bd 88e1 973c 5611 72bd
00000080: a107 863d 28fc 49bd fdb6 a13d c9e4 b4bd
00000090: b6c1 693d 5cf8 b73c a671 41bd 8bef 61bd
000000a0: 071f 853d f888 21bc fbaa 69bd 0e4e 31bd
000000b0: fae7 35bd e885 c7bc eaea 8fbd 45db 9a3d
000000c0: 1a5f 563d 8dab 11bd 740d a6bd e688 543d
000000d0: 55fa 823d fc94 af3c 7056 dd3b 1c01 e6bc
000000e0: cb17 23bd ae6a 0ebd 700d a4bb e651 283d
000000f0: ce89 64bd 6236 293d c9d4 82bd 6cde 96bc
00000100: 2a33 b2bd 54f3 93bc fad5 093d 29d1 8dbd
00000110: 4f03 a33d 6a2c 89bd 18c9 42bc b614 93bd
00000120: adb2 8e3d 8182 86bd 4d9c 98bd 861a 413d
00000130: 5272 8fbd c078 94bc a804 27bc b118 29bd
00000140: 91f6 b13d 902c 983b f5f4 0bbd 195d 8b3d
00000150: 006f 043b 445d febc 47e9 ae3d 3a49 acbd
00000160: b4f7 91bd 1838 cbbc 4a4a b2bd 84c9 c0bc
00000170: f088 6dbc db90 8f3d 9232 7b3d 7a92 6bbd
00000180: 2f40 a93d 1b81 b0bd 360a 553d 97ba 893d
00000190: a688 63bd efbf 37bd ce8e 783d 5efb dcbc
000001a0: c0aa 8bba 2ba7 a53d 6c51 06bd 20fa 23bb
000001b0: db6f b23d fd8d a83d f2d0 103d 90ea 05bc
000001c0: 184c 5e3c 26ae 183d 18dc 843c 225c 233d
000001d0: 0df3 963d a3bf a03d 388c 24bc 4056 543b
000001e0: 303e 5fbc 480c 6c3c 1062 e4bc 4c38 833c
000001f0: 5340 903d cab6 1b3d 2223 253d 0efd 82bd
00000200: c69a 6c3d 670c 9e3d dafc 8fbd ca98 593d
00000210: 134f 8fbd f0e1 83bb 1d16 a63d 5a1d 4e3d
00000220: c8c3 5fbd 20ca afbd d5ab a73d 006e 7c3c
00000230: 2f53 a2bd 5c2b cebc 8472 933c fd81 aabd
00000240: 18f9 1c3c 801a a7bc a4c4 093d aea0 81bd
00000250: 6fa7 a33d cb19 9fbd 4812 633c f046 72bc
00000260: c19f 903d dc8f 3abd 35a6 08bd da19 99bd
00000270: 1e8f 503d fa0b 6b3d 003f 6b3c 0927 9fbd
00000280: e077 1a3b 082a 203c 20e3 ef3c 1b2b 883d
00000290: 885e 253c ea6d f3bc a61a 653d 9870 31bc
000002a0: 350b b3bd d4bc af3c d7c1 1dbd 2fdb 953d
000002b0: 5055 bfbb a0cc 28bc 7823 87bc 02ba 2e3d
000002c0: 2374 a1bd 1865 adbc b85d 2f3c e0f0 633b
000002d0: 886a 47bc bc28 6cbd ac10 c73c 684e 79bd
000002e0: 4062 76bb f26c 073d 9904 99bd 577d 73bd
000002f0: 50b4 ae3b 79f0 4ebd 3309 01bd b836 30bc
00000300: 15db 8d3d 5097 67bd fcd2 0d3d aa15 fabc
00000310: a778 94bd e03d c2bb ad85 39bd a0bd 633b
00000320: 1654 a1bd 0e3f f6bc 004a 9cbc f0fa b33c
00000330: a02c 1dbb 5a6c 0b3d 10db 0e3d 848e a0bd
00000340: 9cde cdbc 78d3 cabc 8fb2 a63d 3db2 a23d
00000350: ad34 883d 389c 9dbc 26e4 70bd 564b 663d
00000360: 9275 6c3d f8c4 6ebc 0000 f539 f8b6 893c
00000370: 88c4 4abd cc64 4cbd c051 b7bc ba02 643d
00000380: e53f 22bd a4b4 9f3c d495 91bd 72cc 02bd
00000390: 8fc7 853d f0bc 8fbb 70e9 dcbb c994 89bd
000003a0: 1a66 0a3d 36c3 5d3d c694 373d b235 85bd
000003b0: 8fc2 953d 9ce3 d93c c069 0abc 0952 89bd
000003c0: 7107 813d 13bb 843d f09e d53b 616a 54bd
000003d0: 9c1f 94bc 7049 1fbc a8c6 9f3c faf0 223d
000003e0: aad4 56bd 1e94 303d 2813 3bbc 168f 3f3d
000003f0: be34 303d 3477 b3bc 02e5 653d 7353 8e3d
-0.043137982 0.07773077 0.07842081 -0.06411553 -0.037988387 0.05770237 0.08437816 -0.04749359
-0.0071314797 -0.037652235 0.018644258 -0.03530126 0.06360092 -0.01370769 0.046350084 -0.034880582
-0.03246787 -0.027924437 -0.047657844 -0.013529457 -0.07757417 0.05642838 0.06886902 0.039143868
-0.08295616 -0.051052812 -0.010322794 0.0054591447 0.05857534 -0.08772429 0.018540159 -0.059098564
0.06544424 -0.04931274 0.0789623 -0.088327 0.057069503 0.022457294 -0.047227524 -0.055160087
0.065000586 -0.009859316 -0.057047825 -0.04328733 -0.044410683 -0.024355844 -0.07027228 0.075613536
0.05233679 -0.035563994 -0.08108035 0.05188837 0.06395403 0.021433346 0.006754689 -0.0280767
-0.039817613 -0.034769706 -0.0050064847 0.04109373 -0.055795483 0.04131163 -0.06388242 -0.018416606
-0.08701165 -0.018060364 0.03365133 -0.0692466 0.079596154 -0.066979244 -0.011888765 -0.07181685
0.069676735 -0.065678604 -0.07451687 0.047144435 -0.07004227 -0.018123984 -0.010193981 -0.041283313
0.08689607 0.004643984 -0.034169156 0.06804866 0.0020207763 -0.031050332 0.08540588 -0.08412404
-0.07127324 -0.024807021 -0.08705576 -0.02353359 -0.0144979805 0.07010051 0.061327524 -0.057512738
0.08264195 -0.08618375 0.05201169 0.06725042 -0.05555024 -0.044860777 0.060683064 -0.02697533
-0.0010655746 0.080885254 -0.032792494 -0.0025020912 0.08712741 0.08230207 0.035355516 -0.0081736
0.013567947 0.037275456 0.01621823 0.039882787 0.07370577 0.07849052 -0.010043196 0.0032400042
-0.0136256665 0.014407225 -0.027878791 0.016018055 0.07043519 0.038016118 0.04031671 -0.063959226
0.05776479 0.07717209 -0.070306495 0.053124227 -0.06997504 -0.0040247366 0.081096865 0.05032096
-0.05463007 -0.08583474 0.08187071 0.015407085 -0.07926022 -0.02516716 0.017998941 -0.083255745
0.009580873 -0.020398378 0.033634797 -0.06329475 0.0799092 -0.077685915 0.013859339 -0.014787421
0.07061721 -0.04554735 -0.033361632 -0.07475634 0.050917737 0.05738447 0.014358282 -0.07771117
0.0023569986 0.009775646 0.029283106 0.06648847 0.010093339 -0.029715497 0.055933617 -0.010830067
-0.08742372 0.021452345 -0.03851494 0.073171966 -0.0058390275 -0.010302693 -0.016496405 0.04265786
-0.078834794 -0.02116637 0.010703497 0.0034781024 -0.012171395 -0.057656035 0.024299942 -0.06086579
-0.0037595183 0.033062883 -0.0747158 -0.059445705 0.0053315535 -0.0505223 -0.031502914 -0.0107552335
0.06926552 -0.056540787 0.03462504 -0.030527908 -0.07249575 -0.005927786 -0.0452935 0.0034750476
-0.07877366 -0.030059364 -0.019078255 0.021970242 -0.0023982897 0.03403888 0.034876883 -0.07839683
-0.025130562 -0.02475904 0.08139526 0.079441525 0.06650672 -0.01923953 -0.05881133 0.05622419
0.05772931 -0.014573328 0.00046730042 0.01681088 -0.049503833 -0.049900815 -0.022377849 0.055666663
-0.039611716 0.019495316 -0.071086556 -0.031933255 0.065322034 -0.004386537 -0.006741695 -0.06717832
0.033788778 0.054141246 0.044819616 -0.06504382 0.073125 0.02659779 -0.008448064 -0.067051
0.063002475 0.06480994 0.006519191 -0.051859263 -0.018081479 -0.009722099 0.019503906 0.039780594
-0.052448906 0.043110006 -0.011418141 0.046767317 0.04301905 -0.021907426 0.056126602 0.069495104

weight f4 [128]
00000000: 0000 803f 0000 803f 0000 803f 0000 803f
00000010: 0000 803f 0000 803f 0000 803f 0000 803f
00000020: 0000 803f 0000 803f 0000 803f 0000 803f
00000030: 0000 803f 0000 803f 0000 803f 0000 803f
00000040: 0000 803f 0000 803f 0000 803f 0000 803f
00000050: 0000 803f 0000 803f 0000 803f 0000 803f
00000060: 0000 803f 0000 803f 0000 803f 0000 803f
00000070: 0000 803f 0000 803f 0000 803f 0000 803f
00000080: 0000 803f 0000 803f 0000 803f 0000 803f
00000090: 0000 803f 0000 803f 0000 803f 0000 803f
000000a0: 0000 803f 0000 803f 0000 803f 0000 803f
000000b0: 0000 803f 0000 803f 0000 803f 0000 803f
000000c0: 0000 803f 0000 803f 0000 803f 0000 803f
000000d0: 0000 803f 0000 803f 0000 803f 0000 803f
000000e0: 0000 803f 0000 803f 0000 803f 0000 803f
000000f0: 0000 803f 0000 803f 0000 803f 0000 803f
00000100: 0000 803f 0000 803f 0000 803f 0000 803f
00000110: 0000 803f 0000 803f 0000 803f 0000 803f
00000120: 0000 803f 0000 803f 0000 803f 0000 803f
00000130: 0000 803f 0000 803f 0000 803f 0000 803f
00000140: 0000 803f 0000 803f 0000 803f 0000 803f
00000150: 0000 803f 0000 803f 0000 803f 0000 803f
00000160: 0000 803f 0000 803f 0000 803f 0000 803f
00000170: 0000 803f 0000 803f 0000 803f 0000 803f
00000180: 0000 803f 0000 803f 0000 803f 0000 803f
00000190: 0000 803f 0000 803f 0000 803f 0000 803f
000001a0: 0000 803f 0000 803f 0000 803f 0000 803f
000001b0: 0000 803f 0000 803f 0000 803f 0000 803f
000001c0: 0000 803f 0000 803f 0000 803f 0000 803f
000001d0: 0000 803f 0000 803f 0000 803f 0000 803f
000001e0: 0000 803f 0000 803f 0000 803f 0000 803f
000001f0: 0000 803f 0000 803f 0000 803f 0000 803f
1.0 1.0 1.0 1.0 1.0 1.0 1.0 1.0
1.0 1.0 1.0 1.0 1.0 1.0 1.0 1.0
1.0 1.0 1.0 1.0 1.0 1.0 1.0 1.0
1.0 1.0 1.0 1.0 1.0 1.0 1.0 1.0
1.0 1.0 1.0 1.0 1.0 1.0 1.0 1.0
1.0 1.0 1.0 1.0 1.0 1.0 1.0 1.0
1.0 1.0 1.0 1.0 1.0 1.0 1.0 1.0
1.0 1.0 1.0 1.0 1.0 1.0 1.0 1.0
1.0 1.0 1.0 1.0 1.0 1.0 1.0 1.0
1.0 1.0 1.0 1.0 1.0 1.0 1.0 1.0
1.0 1.0 1.0 1.0 1.0 1.0 1.0 1.0
1.0 1.0 1.0 1.0 1.0 1.0 1.0 1.0
1.0 1.0 1.0 1.0 1.0 1.0 1.0 1.0
1.0 1.0 1.0 1.0 1.0 1.0 1.0 1.0
1.0 1.0 1.0 1.0 1.0 1.0 1.0 1.0
1.0 1.0 1.0 1.0 1.0 1.0 1.0 1.0

bias f4 [128]
00000000: 0000 0000 0000 0000 0000 0000 0000 0000
00000010: 0000 0000 0000 0000 0000 0000 0000 0000
00000020: 0000 0000 0000 0000 0000 0000 0000 0000
00000030: 0000 0000 0000 0000 0000 0000 0000 0000
00000040: 0000 0000 0000 0000 0000 0000 0000 0000
00000050: 0000 0000 0000 0000 0000 0000 0000 0000
00000060: 0000 0000 0000 0000 0000 0000 0000 0000
00000070: 0000 0000 0000 0000 0000 0000 0000 0000
00000080: 0000 0000 0000 0000 0000 0000 0000 0000
00000090: 0000 0000 0000 0000 0000 0000 0000 0000
000000a0: 0000 0000 0000 0000 0000 0000 0000 0000
000000b0: 0000 0000 0000 0000 0000 0000 0000 0000
000000c0: 0000 0000 0000 0000 0000 0000 0000 0000
000000d0: 0000 0000 0000 0000 0000 0000 0000 0000
000000e0: 0000 0000 0000 0000 0000 0000 0000 0000
000000f0: 0000 0000 0000 0000 0000 0000 0000 0000
00000100: 0000 0000 0000 0000 0000 0000 0000 0000
00000110: 0000 0000 0000 0000 0000 0000 0000 0000
00000120: 0000 0000 0000 0000 0000 0000 0000 0000
00000130: 0000 0000 0000 0000 0000 0000 0000 0000
00000140: 0000 0000 0000 0000 0000 0000 0000 0000
00000150: 0000 0000 0000 0000 0000 0000 0000 0000
00000160: 0000 0000 0000 0000 0000 0000 0000 0000
00000170: 0000 0000 0000 0000 0000 0000 0000 0000
00000180: 0000 0000 0000 0000 0000 0000 0000 0000
00000190: 0000 0000 0000 0000 0000 0000 0000 0000
000001a0: 0000 0000 0000 0000 0000 0000 0000 0000
000001b0: 0000 0000 0000 0000 0000 0000 0000 0000
000001c0: 0000 0000 0000 0000 0000 0000 0000 0000
000001d0: 0000 0000 0000 0000 0000 0000 0000 0000
000001e0: 0000 0000 0000 0000 0000 0000 0000 0000
000001f0: 0000 0000 0000 0000 0000 0000 0000 0000
0.0 0.0 0.0 0.0 0.0 0.0 0.0 0.0
0.0 0.0 0.0 0.0 0.0 0.0 0.0 0.0
0.0 0.0 0.0 0.0 0.0 0.0 0.0 0.0
0.0 0.0 0.0 0.0 0.0 0.0 0.0 0.0
0.0 0.0 0.0 0.0 0.0 0.0 0.0 0.0
0.0 0.0 0.0 0.0 0.0 0.0 0.0 0.0
0.0 0.0 0.0 0.0 0.0 0.0 0.0 0.0
0.0 0.0 0.0 0.0 0.0 0.0 0.0 0.0
0.0 0.0 0.0 0.0 0.0 0.0 0.0 0.0
0.0 0.0 0.0 0.0 0.0 0.0 0.0 0.0
0.0 0.0 0.0 0.0 0.0 0.0 0.0 0.0
0.0 0.0 0.0 0.0 0.0 0.0 0.0 0.0
0.0 0.0 0.0 0.0 0.0 0.0 0.0 0.0
0.0 0.0 0.0 0.0 0.0 0.0 0.0 0.0
0.0 0.0 0.0 0.0 0.0 0.0 0.0 0.0
0.0 0.0 0.0 0.0 0.0 0.0 0.0 0.0

weight f4 [3, 128]
00000000: fd29 953d d469 a4bc bf2c 9e3d c0e9 b43a
00000010: b012 a6bd c1a2 a73d 241f e33c a8bd d3bc
00000020: ee25 213d 3d6d a73d c966 943d 865c 573d
00000030: 0f49 8a3d e0f3 c8bc 8bca b33d 23a4 843d
00000040: f3ce 86bd 6893 66bd c87f 19bc dd8d b0bd
00000050: 68b8 fcbc 15e2 91bd 00ca e83a 45be 873d
00000060: a065 3abb 8327 a43d 00b9 233c 6009 9a3b
00000070: 404d 48bc 36cc 033d 0ec2 433d 302f a73c
00000080: c25c 6c3d ea70 a9bd 1efd a5bd 84f2 8c3c
00000090: b02a 4cbc 1011 0dbc e6f1 06bd d2ed 163d
000000a0: a292 543d 7ed8 283d 8217 223d 00e8 123a
000000b0: b59b 0fbd b078 b73b 84c2 aa3c 4dba 74bd
000000c0: c77c 23bd 0009 a5ba b6de 7c3d d756 953d
000000d0: 6097 d9bb 9c19 a33c ea02 723d 72b1 2a3d
000000e0: e65b f9bc ce3d 773d 95f9 ad3d 4aed 5c3d
000000f0: 901a 2d3c 1e11 80bd 64b4 a6bd 27bd 2abd
00000100: 30a5 fabc 6682 3f3d 20ba f33b ae26 6f3d
00000110: b0fa 5abc 2dda 813d 08f9 493c 1b62 73bd
00000120: ce28 2ebd 7a01 a3bd 1828 4d3c 60f9 f13c
00000130: fccc 54bd ad72 903d 6f9e 03bd 502b ff3c
00000140: 52b8 5a3d ca08 0ebd b0c4 83bd b82d 91bd
00000150: 3938 883d 92b3 733d f08e 4ebc 4d0c 943d
00000160: 8ad0 5a3d fa73 81bd 2073 3cbc 1868 f1bc
00000170: 0570 a53d b907 b1bd 4b33 933d 245b c43c
00000180: ecb9 aebd 43f3 ac3d 6eaf 3c3d 2b3e 943d
00000190: b0fb ebbb a76b 0ebd d748 a03d 0982 71bd
000001a0: 77b3 833d d05c b1bd 38cb 99bd 4ee5 3b3d
000001b0: 55d6 97bd 488e 54bc 9ddf 803d 1ece 743d
000001c0: 9451 d63c 7ca4 dc3c de10 373d a592 14bd
000001d0: 927e 793d 7a8a 10bd af7c af3d 464a 8bbd
000001e0: 5242 6e3d 0848 913c 500a 75bc 158b 34bd
000001f0: 4018 27bb 308e d9bb 2fb1 803d 697f 913d
00000200: be01 66bd 3661 543d a439 bf3c 82b2 583d
00000210: e119 9f3d c3d2 af3d a538 99bd 6f45 99bd
00000220: d887 52bc e583 9e3d 20af 183c ad6a 50bd
00000230: 9623 773d 4072 b73b b4aa e7bc 9b46 a2bd
00000240: e8a3 4abc 1c21 94bd 28bf f83c eaca 3d3d
00000250: f761 86bd 0eba 0b3d ed4b 9b3d 8485 8e3c
00000260: 80a7 95ba d208 5abd b0ba 193c ffda a53d
00000270: 96f6 553d d0b4 533c 5fe7 58bd 212b 5ebd
00000280: 6a37 5b3d 41ef b0bd cc92 023d c982 86bd
00000290: 007b 8f3b af22 953d e4b2 d0bc a03e 5fbb
000002a0: 4814 5a3c 74bf ebbc d8e2 df3c 64e9 983c
000002b0: fd45 81bd 4034 dcba 405f c1bb 206e 70bb
000002c0: 94ba dc3c af46 a93d 59e1 ac3d d6ef 5c3d
000002d0: 9129 2ebd 3585 a83d 58ed a2bd 390a 02bd
000002e0: f812 01bc 38c7 18bc 35e6 4ebd b260 a0bd
000002f0: c08b 4f3c 5e9b 02bd 042f 1bbd 3cfd 043d
00000300: 4006 bebc 32d4 8fbd 4a7c 8bbd 3c74 97bd
00000310: 3bb7 913d 6a9a 233d b89a 77bd 0e25 453d
00000320: a40c cbbc b421 25bd 68e6 3bbd aab9 d5bc
00000330: 29fa b0bd 2398 a1bd 19a0 a3bd de36 1f3d
00000340: 5e59 583d 9565 98bd 2cc4 0e3d 32b2 7ebd
00000350: 1fe8 93bd c746 26bd c075 92ba 4c37 22bd
00000360: 49ae 4dbd 20dc 44bc 10b4 dc3c bc3e f33c
00000370: a18d 1ebd c5d9 b3bd 634f 80bd cf83 a53d
00000380: ce6f 683d e026 073c affd 1ebd b05f 79bc
00000390: 02e0 123d 8e2a 623d bab2 4d3d 874d 31bd
000003a0: 70e7 45bd 42af 53bd 3f6d 46bd 18e2 863c
000003b0: 8ee1 543d c813 a5bd 3bb0 3abd 808a ec3c
000003c0: 4603 b4bd 90ae 3dbc 86b1 8abd 1fad 9d3d
000003d0: 5ae2 513d e047 d7bb 68cc 46bc da9e 273d
000003e0: a3db 94bd 9a59 8fbd 38a4 063c d2ae 1d3d
000003f0: ce5c 3d3d 76cb 19bd cad2 88bd 79a8 873d
0.07283399 -0.020069994 0.077233784 0.0013802573 -0.08109033 0.0818534 0.02772481 -0.025847271
0.039342813 0.081751324 0.07246167 0.05257847 0.06752216 -0.024530351 0.087788664 0.06476619
-0.06582441 -0.05629292 -0.009368844 -0.08620808 -0.03084965 -0.071232 0.0017760396 0.06628088
-0.002844192 0.08015349 0.009992838 0.0047008246 -0.012225449 0.032177173 0.047792487 0.020408243
0.05770565 -0.0827349 -0.08104919 0.017205484 -0.012461349 -0.008610025 -0.032945536 0.036847897
0.051897652 0.041222088 0.0395732 0.00056040287 -0.035060603 0.005599104 0.020844705 -0.059747983
-0.03991392 -0.0012591183 0.06173583 0.07291954 -0.0066403598 0.019909672 0.05908481 0.04167313
-0.030439328 0.060361676 0.084948696 0.053937234 0.010565415 -0.06253265 -0.081398755 -0.041684296
-0.030596346 0.046755217 0.0074379593 0.058386497 -0.013365433 0.06340442 0.01232744 -0.059419733
-0.042519383 -0.07959266 0.012521766 0.029537857 -0.0519533 0.07053123 -0.032133516 0.031148583
0.053398438 -0.03467635 -0.064339995 -0.07088798 0.066513486 0.059497423 -0.012607321 0.07228909
0.053421535 -0.06320949 -0.011502057 -0.029468581 0.08078007 -0.08644051 0.07187518 0.02396924
-0.085315555 0.08444836 0.04606574 0.0723842 -0.0072016343 -0.034770634 0.07826393 -0.0589619
0.064307146 -0.08660281 -0.07509464 0.04587298 -0.074139275 -0.012973376 0.06292651 0.05976688
0.026161946 0.026933901 0.04469382 -0.036272664 0.060911722 -0.03528831 0.085687034 -0.06801276
0.058168717 0.017734542 -0.014956072 -0.04407795 -0.0025496632 -0.0066392645 0.06283795 0.0710438
-0.056154005 0.05185052 0.023342915 0.052904613 0.07768608 0.085851215 -0.07481507 -0.074839465
-0.0128497705 0.07740001 0.009319097 -0.050882984 0.06033667 0.0055983365 -0.02827964 -0.07923623
-0.01236818 -0.072328776 0.030364588 0.046336092 -0.06561654 0.034112982 0.07582841 0.01739765
-0.0011417717 -0.053231068 0.009382889 0.08098411 0.052237116 0.012921527 -0.052955028 -0.05424035
0.053519644 -0.08639384 0.031878278 -0.06567914 0.0043786764 0.07282006 -0.025475927 -0.0034064427
0.0133104995 -0.028777815 0.027329847 0.018665977 -0.06312177 -0.001680024 -0.0059012473 -0.0036686733
0.026944436 0.08265435 0.08441419 0.053939663 -0.04252011 0.08228532 -0.07955426 -0.03174803
-0.007878058 -0.009324841 -0.05051251 -0.07830943 0.012667596 -0.03188645 -0.037886634 0.032468066
-0.02319634 -0.07022895 -0.06810816 -0.07395217 0.071150266 0.039942183 -0.060450286 0.04813104
-0.024786301 -0.040315345 -0.04587403 -0.026089508 -0.08641464 -0.07890346 -0.079895206 0.038870685
0.052819602 -0.0744125 0.034855053 -0.06218166 -0.07222008 -0.040594842 -0.0011174008 -0.039603516
-0.05021504 -0.0120153725 0.02694133 0.029693 -0.038709287 -0.087817706 -0.06265142 0.08081781
0.05674725 0.008249015 -0.03881615 -0.015220568 0.03585816 0.055216365 0.050219275 -0.043286826
-0.04831642 -0.05168081 -0.04844403 0.016465232 0.05197292 -0.080604136 -0.045578223 0.028874636
-0.08789687 -0.0115772635 -0.06772141 0.07699036 0.051241256 -0.0065698475 -0.012133695 0.040922977
-0.07268455 -0.06999512 0.008217864 0.0384968 0.046231084 -0.03754755 -0.0668083 0.066239305

bias f4 [3]
00000000: 6123 883d 6953 af3d d3fa a23d
0.06647373 0.08560831 0.07957997

weight f4 [128]
00000000: 0000 803f 0000 803f 0000 803f 0000 803f
00000010: 0000 803f 0000 803f 0000 803f 0000 803f
00000020: 0000 803f 0000 803f 0000 803f 0000 803f
00000030: 0000 803f 0000 803f 0000 803f 0000 803f
00000040: 0000 803f 0000 803f 0000 803f 0000 803f
00000050: 0000 803f 0000 803f 0000 803f 0000 803f
00000060: 0000 803f 0000 803f 0000 803f 0000 803f
00000070: 0000 803f 0000 803f 0000 803f 0000 803f
00000080: 0000 803f 0000 803f 0000 803f 0000 803f
00000090: 0000 803f 0000 803f 0000 803f 0000 803f
000000a0: 0000 803f 0000 803f 0000 803f 0000 803f
000000b0: 0000 803f 0000 803f 0000 803f 0000 803f
000000c0: 0000 803f 0000 803f 0000 803f 0000 803f
000000d0: 0000 803f 0000 803f 0000 803f 0000 803f
000000e0: 0000 803f 0000 803f 0000 803f 0000 803f
000000f0: 0000 803f 0000 803f 0000 803f 0000 803f
00000100: 0000 803f 0000 803f 0000 803f 0000 803f
00000110: 0000 803f 0000 803f 0000 803f 0000 803f
00000120: 0000 803f 0000 803f 0000 803f 0000 803f
00000130: 0000 803f 0000 803f 0000 803f 0000 803f
00000140: 0000 803f 0000 803f 0000 803f 0000 803f
00000150: 0000 803f 0000 803f 0000 803f 0000 803f
00000160: 0000 803f 0000 803f 0000 803f 0000 803f
00000170: 0000 803f 0000 803f 0000 803f 0000 803f
00000180: 0000 803f 0000 803f 0000 803f 0000 803f
00000190: 0000 803f 0000 803f 0000 803f 0000 803f
000001a0: 0000 803f 0000 803f 0000 803f 0000 803f
000001b0: 0000 803f 0000 803f 0000 803f 0000 803f
000001c0: 0000 803f 0000 803f 0000 803f 0000 803f
000001d0: 0000 803f 0000 803f 0000 803f 0000 803f
000001e0: 0000 803f 0000 803f 0000 803f 0000 803f
000001f0: 0000 803f 0000 803f 0000 803f 0000 803f
1.0 1.0 1.0 1.0 1.0 1.0 1.0 1.0
1.0 1.0 1.0 1.0 1.0 1.0 1.0 1.0
1.0 1.0 1.0 1.0 1.0 1.0 1.0 1.0
1.0 1.0 1.0 1.0 1.0 1.0 1.0 1.0
1.0 1.0 1.0 1.0 1.0 1.0 1.0 1.0
1.0 1.0 1.0 1.0 1.0 1.0 1.0 1.0
1.0 1.0 1.0 1.0 1.0 1.0 1.0 1.0
1.0 1.0 1.0 1.0 1.0 1.0 1.0 1.0
1.0 1.0 1.0 1.0 1.0 1.0 1.0 1.0
1.0 1.0 1.0 1.0 1.0 1.0 1.0 1.0
1.0 1.0 1.0 1.0 1.0 1.0 1.0 1.0
1.0 1.0 1.0 1.0 1.0 1.0 1.0 1.0
1.0 1.0 1.0 1.0 1.0 1.0 1.0 1.0
1.0 1.0 1.0 1.0 1.0 1.0 1.0 1.0
1.0 1.0 1.0 1.0 1.0 1.0 1.0 1.0
1.0 1.0 1.0 1.0 1.0 1.0 1.0 1.0

bias f4 [128]
00000000: 0000 0000 0000 0000 0000 0000 0000 0000
00000010: 0000 0000 0000 0000 0000 0000 0000 0000
00000020: 0000 0000 0000 0000 0000 0000 0000 0000
00000030: 0000 0000 0000 0000 0000 0000 0000 0000
00000040: 0000 0000 0000 0000 0000 0000 0000 0000
00000050: 0000 0000 0000 0000 0000 0000 0000 0000
00000060: 0000 0000 0000 0000 0000 0000 0000 0000
00000070: 0000 0000 0000 0000 0000 0000 0000 0000
00000080: 0000 0000 0000 0000 0000 0000 0000 0000
00000090: 0000 0000 0000 0000 0000 0000 0000 0000
000000a0: 0000 0000 0000 0000 0000 0000 0000 0000
000000b0: 0000 0000 0000 0000 0000 0000 0000 0000
000000c0: 0000 0000 0000 0000 0000 0000 0000 0000
000000d0: 0000 0000 0000 0000 0000 0000 0000 0000
000000e0: 0000 0000 0000 0000 0000 0000 0000 0000
000000f0: 0000 0000 0000 0000 0000 0000 0000 0000
00000100: 0000 0000 0000 0000 0000 0000 0000 0000
00000110: 0000 0000 0000 0000 0000 0000 0000 0000
00000120: 0000 0000 0000 0000 0000 0000 0000 0000
00000130: 0000 0000 0000 0000 0000 0000 0000 0000
00000140: 0000 0000 0000 0000 0000 0000 0000 0000
00000150: 0000 0000 0000 0000 0000 0000 0000 0000
00000160: 0000 0000 0000 0000 0000 0000 0000 0000
00000170: 0000 0000 0000 0000 0000 0000 0000 0000
00000180: 0000 0000 0000 0000 0000 0000 0000 0000
00000190: 0000 0000 0000 0000 0000 0000 0000 0000
000001a0: 0000 0000 0000 0000 0000 0000 0000 0000
000001b0: 0000 0000 0000 0000 0000 0000 0000 0000
000001c0: 0000 0000 0000 0000 0000 0000 0000 0000
000001d0: 0000 0000 0000 0000 0000 0000 0000 0000
000001e0: 0000 0000 0000 0000 0000 0000 0000 0000
000001f0: 0000 0000 0000 0000 0000 0000 0000 0000
0.0 0.0 0.0 0.0 0.0 0.0 0.0 0.0
0.0 0.0 0.0 0.0 0.0 0.0 0.0 0.0
0.0 0.0 0.0 0.0 0.0 0.0 0.0 0.0
0.0 0.0 0.0 0.0 0.0 0.0 0.0 0.0
0.0 0.0 0.0 0.0 0.0 0.0 0.0 0.0
0.0 0.0 0.0 0.0 0.0 0.0 0.0 0.0
0.0 0.0 0.0 0.0 0.0 0.0 0.0 0.0
0.0 0.0 0.0 0.0 0.0 0.0 0.0 0.0
0.0 0.0 0.0 0.0 0.0 0.0 0.0 0.0
0.0 0.0 0.0 0.0 0.0 0.0 0.0 0.0
0.0 0.0 0.0 0.0 0.0 0.0 0.0 0.0
0.0 0.0 0.0 0.0 0.0 0.0 0.0 0.0
0.0 0.0 0.0 0.0 0.0 0.0 0.0 0.0
0.0 0.0 0.0 0.0 0.0 0.0 0.0 0.0
0.0 0.0 0.0 0.0 0.0 0.0 0.0 0.0
0.0 0.0 0.0 0.0 0.0 0.0 0.0 0.0

weight f4 [1, 128]
00000000: 1aa9 2e3d 18c7 5abc 35b6 91bd 7783 803d
00000010: e4ae babc 609a 7abb 4071 41bd 244f 8dbd
00000020: 9053 963b 5e72 533d d44e da3c a0e9 ca3b
00000030: c3fa 8dbd b668 89bd ef1b 7cbd 38fe c83c
00000040: bc42 e23c 0a64 7e3d 879b 01bd 9e66 193d
00000050: 0068 5eb9 38be 743c 9891 b03c 5c6e 62bd
00000060: e345 a73d a2dd 343d 65ae 30bd 87e1 a83d
00000070: c22d 5c3d ec82 843c 7657 7d3d 797f 4fbd
00000080: 7170 0bbd 9104 b23d 9ef9 753d e5af ac3d
00000090: 126c e4bc f406 1fbd 5c53 ddbc 1914 ac3d
000000a0: e61a 553d 00a9 fab9 e887 fa3c 4789 0dbd
000000b0: f55d a63d 4d30 8a3d 6727 8e3d 6f03 8d3d
000000c0: d2dd 203d 9e94 9dbd 2e1e 62bd 0f93 a43d
000000d0: 0206 263d 2604 353d 70f6 e03c 9067 b2bd
000000e0: 0046 98bd ef41 23bd 3ccb 103d 2861 d73c
000000f0: b46a a2bd 8dd2 833d c64d dcbc 572f ac3d
00000100: 58aa 8dbd 0c91 93bd 0afa 2f3d 86b4 3dbd
00000110: a0cf d2bb 86a4 343d 287d 95bc bb6a 67bd
00000120: 2b6d 833d 88da 6c3c 8a3d 1b3d a261 093d
00000130: 6cc2 e1bc d8e9 283c 89fc a93d 02d0 4e3d
00000140: 3ccb aabc 48c2 fbbc fc32 aabc 78ad df3c
00000150: 7047 31bc 7ee8 2a3d 989c 1bbd 38b3 24bc
00000160: 1144 b0bd fbc5 af3d 4a85 4f3d 108d 4cbc
00000170: 6449 933c d607 163d 61a3 9ebd 00c7 253b
00000180: 7337 b23d 34ab e03c 2260 20bd aedb 72bd
00000190: 6127 b43d ab68 983d 129e 533d b001 163c
000001a0: 7ba2 b13d e802 423c b094 be3c ca73 163d
000001b0: a829 cd3c 4d32 a5bd 000b ec39 b302 993d
000001c0: 00ce ecbb 7092 9dbc 5f3c 4ebd cc2b bebc
000001d0: 1ec8 753d 0272 743d caf2 53bd 6c84 86bd
000001e0: 9e34 7abd d513 4ebd 6e4b febc 376e 45bd
000001f0: deaa 22bd f79a aebd 26d9 6f3d d485 e6bc
0.042641737 -0.013353132 -0.07114831 0.06275075 -0.022788472 -0.0038238987 -0.047227144 -0.068998605
0.004587598 0.05162274 0.026648916 0.006192401 -0.069325946 -0.06709425 -0.061550077 0.024535283
0.027619712 0.062107123 -0.031642463 0.03745138 -0.00021210313 0.01493793 0.0215538 -0.05528103
0.08167627 0.044156678 -0.043135066 0.08246141 0.053754576 0.01617571 0.061850987 -0.050658677
-0.03404278 0.08692277 0.060052507 0.08431987 -0.027883563 -0.03882499 -0.027017288 0.08402271
0.052027605 -0.0004780963 0.030582383 -0.034554746 0.0812339 0.06747494 0.06941109 0.068854205
0.039274044 -0.07694362 -0.055204563 0.08035862 0.040533073 0.04419341 0.02746126 -0.08711159
-0.074352264 -0.0398578 0.03535007 0.026291445 -0.07930508 0.06436644 -0.026892554 0.08407467
-0.06917256 -0.072054 0.042963065 -0.04631474 -0.0064334422 0.044102214 -0.018248156 -0.05649827
0.064173065 0.014456399 0.037900485 0.033540376 -0.027558528 0.010309659 0.083001204 0.05049134
-0.020848863 -0.030732289 -0.020776264 0.027304396 -0.010820255 0.041725628 -0.037991136 -0.010052495
-0.08606733 0.08582684 0.050664224 -0.012484804 0.017979331 0.036628567 -0.07746006 0.0025295615
0.08701982 0.027425386 -0.03915418 -0.059291534 0.087965734 0.07441839 0.05166442 0.009155676
0.08673569 0.011841513 0.02326426 0.03673152 0.025044277 -0.08066235 0.00045021623 0.07471218
-0.0072267056 -0.019234866 -0.050350543 -0.023214243 0.0600053 0.05967904 -0.051745214 -0.06568226
-0.061085336 -0.050311882 -0.031041827 -0.048200812 -0.039713733 -0.08525651 0.0585567 -0.028139986
